model/model.pth (torch, 803231 bytes, 4 tensors)

linear1.weight f4 [256, 779]
000000 0d 8e ce 3c 4c 05 a1 3c 26 39 40 bc e0 96 ae 3c
       0.02521422 0.019655846 -0.011732375 0.021312177
000010 ee 17 72 3a dd 88 c1 3c 18 ae b7 b8 66 c3 3a bc
       0.0009235133 0.023624832 -8.7585475e-05 -0.011399126
000020 cb 49 a6 bc 3f cd 0e 3d f8 bb 08 3c 71 1d 0d bd
       -0.02029886 0.034863707 0.0083455965 -0.034451906
000030 de c2 59 bc c0 c6 d0 ba 8c be 01 3c 0a 54 69 bc
       -0.013291089 -0.0015928373 0.007918965 -0.014241228
000040 76 c1 b9 3c 74 d5 52 bc 7c 7c 01 3c 1c 50 8d 3c
       0.022675257 -0.012868274 0.007903215 0.017250113
000050 80 c1 24 3a 00 37 d3 b9 fc 30 c6 bc 44 a0 ef bc
       0.0006284937 -0.00040286034 -0.02419328 -0.029251225
000060 2e e6 5a 3c 49 c9 d3 3c 01 6e 44 bd e8 35 8a bb
       0.013360543 0.025852816 -0.04795647 -0.004217852
000070 40 9b 53 bc f5 db 03 bd 00 51 19 3b c3 de b3 bc
       -0.012915432 -0.03219219 0.0023394227 -0.021956807
000080 12 a5 97 bc a8 e4 4f 3c 7e 92 90 3c 78 ee e0 3c
       -0.018511329 0.012688793 0.017647978 0.02745746
000090 5c dd fb 3c b4 10 ba bb e8 c0 d6 bc 36 36 ca bc
       0.0307452 -0.0056782607 -0.026215032 -0.024684053
0000a0 02 3c 09 3d aa c8 b0 3c 6e b6 07 bd 00 c0 aa 39
       0.033504494 0.02158006 -0.033132963 0.00032567978
0000b0 e6 4e 12 3d d2 00 a6 3c e0 5c a0 3a c3 80 c2 bc
       0.035719775 0.020264063 0.001223471 -0.023743039
0000c0 88 22 ac 3b 70 a9 0c bb 78 df b6 bc f7 44 05 bd
       0.00525314 -0.0021463297 -0.022323355 -0.032536473
0000d0 88 24 c9 bc d6 c4 91 3c fc ed 1f 3c 6c 1a 95 3c
       -0.024553552 0.017794054 0.00976133 0.018201075
0000e0 8b 18 3e ba c1 b2 ab 3c 89 fa 5e 3c 0c 4a 00 bb
       -0.0007251582 0.02095926 0.013609537 -0.0019575385
0000f0 9e c0 0c bc 7c 62 b8 3c 52 97 50 bc 40 27 04 3d
       -0.008590845 0.022507899 -0.01273139 0.032263994
000100 d0 e7 b3 3b 48 fb 98 3b 98 65 06 3c e6 36 7f bc
       0.0054902807 0.004668627 0.008202933 -0.015577054
000110 00 e3 5c 3c b2 40 d6 3c 80 19 ab 3b c4 cb fe bc
       0.013481855 0.026153896 0.0052215457 -0.031103022
000120 8c bb c3 bc b4 8d 02 3c 10 bb 48 3c 80 cb 8d b9
       -0.02389314 0.007968355 0.01225163 -0.00027045235
000130 8d e6 96 bc 0c b2 0a bc ee bd 4e bc b7 c2 ec bc
       -0.018420482 -0.008465301 -0.012618525 -0.028901441
000140 e2 b6 c2 3c b2 3d cb bc 78 5f 0f 3d 83 79 99 bc
       0.023768846 -0.024809692 0.035003155 -0.0187347
000150 5d fa c0 bc bf aa 82 bc a8 1c 9c 3b 06 70 2d 3d
       -0.023556883 -0.015950559 0.0047641583 0.042343162
000160 b0 18 25 bd 37 70 82 bc 40 fb 1b ba 32 be ee bc
       -0.040306747 -0.015922649 -0.000595022 -0.029143427
000170 ec e4 cb bc ce c0 ff bc 80 79 fd ba fa 64 03 3d
       -0.024889432 -0.031219866 -0.0019338578 0.03207872
000180 ca d6 d4 3c 80 1d e4 3b 0e a6 48 bc bc f6 fb bc
       0.025981326 0.0069615245 -0.012246622 -0.0307573
000190 70 00 0f 3d 78 24 05 3d 3a 27 09 3d 1c bc e0 bb
       0.034912527 0.032505482 0.033484675 -0.006858362
0001a0 66 12 12 bc 20 d2 15 bb 83 bc ca bc 61 cf 0d bd
       -0.008915519 -0.002286084 -0.024748093 -0.0346216
0001b0 a4 7b d2 3c e0 be 49 bb 5e 7e 79 bc b0 b6 61 3c
       0.025693722 -0.0030783936 -0.015227882 0.013776466
0001c0 34 31 98 3c 40 81 2d 3a e2 12 83 3c 48 97 ba bb
       0.01857815 0.0006618686 0.016000215 -0.0056943037
0001d0 98 b6 91 bc a4 2c ee 3c 28 4e e3 3b 82 f1 2a 3d
       -0.017787263 0.02907402 0.006936807 0.041734226
0001e0 83 7d 1a bb 28 28 3e bc 35 07 2e 3d b4 46 96 3c
       -0.0023573346 -0.011606254 0.042487342 0.01834426
0001f0 3c a3 32 3c 00 90 f7 3c bc 41 f2 3c d0 11 53 bb
       0.010903176 0.030220032 0.02957236 -0.0032206662
000200 00 88 a5 3c c0 31 9c bc 5c ac 6e 3c 66 85 c3 bc
       0.020206451 -0.019066691 0.014567461 -0.02386732
000210 c8 8a f4 bc f0 50 43 bb 40 5a ae 3c e0 25 03 3d
       -0.029851332 -0.0029802881 0.021283269 0.032018542
000220 80 8c 6c bb 88 f3 1a 3c f6 e4 4f bc 58 02 0c 3c
       -0.0036094487 0.009457476 -0.012688866 0.008545481
000230 2a 2f c4 3c 6b 2d d9 bc a8 0c 42 3c 93 fd ee bc
       0.02394827 -0.026510915 0.011843838 -0.029173648
000240 92 da bf bc c0 36 3d 3a 70 a1 99 3b df 6b df bc
       -0.023419652 0.0007217936 0.0046884343 -0.027273117
000250 7c 11 f2 bc a4 8d df bc 88 60 db 3b 86 f9 16 bc
       -0.029549353 -0.02728922 0.006694857 -0.009214764
000260 a5 b2 1f bd 7e c5 27 bd ba 26 00 3d 5f 75 91 3c
       -0.038988728 -0.040959828 0.031286933 0.017756162
000270 9b 00 cb bc 57 1c 6f 3c 5d d1 c6 bc 59 7d 20 3b
       -0.024780562 0.014594159 -0.024269754 0.0024488776
000280 40 a1 d9 ba 79 81 a7 bc 38 be f4 bb de 32 c8 bc
       -0.0016603842 -0.02044748 -0.007468965 -0.024438318
000290 07 1a 0a bd b2 b0 d7 3c 40 87 d1 bb 2c 79 0d bc
       -0.033716228 0.026329372 -0.006394297 -0.008634847
0002a0 d4 ce 7c bc ce ac 97 3c 80 81 51 3a 7e 7f 02 3d
       -0.015430171 0.018515017 0.0007992014 0.031859867
0002b0 80 a8 ba 3b d8 12 ef 3b 14 cc ea 3c 00 1d 99 39
       0.0056963563 0.0072959475 0.028661765 0.0002920404
0002c0 32 96 b6 bc 20 b6 b2 bc de d5 02 bc 30 8a 35 bb
       -0.022288416 -0.02181536 -0.00798556 -0.0027700774
0002d0 a0 1c 2b bb 94 7d fb 3c a5 16 d3 bc 0e 80 66 bc
       -0.002610959 0.030699529 -0.025767634 -0.014068617
0002e0 d1 4c 46 bc 96 a4 8e ba ee f1 0d bb 13 d6 24 3d
       -0.012103275 -0.0010882791 -0.0021659094 0.04024322
0002f0 e5 af c3 bc 32 09 97 bc 37 07 20 3c 87 b8 15 3d
       -0.023887584 -0.018437002 0.009767345 0.036552932
000300 ed 26 3c 3d 30 c1 e2 3c 00 7f ff b9 30 fb 71 3c
       0.04593556 0.02768001 -0.00048732013 0.01476936
000310 82 90 5e bc 73 8a f2 bc 04 aa 04 bd d0 ea 86 3b
       -0.013584258 -0.029607033 -0.032388702 0.0041173473
000320 9c cb fa 3c 98 73 06 3d 78 4f 25 3c 8a 4e 02 bc
       0.030614667 0.032825083 0.010089748 -0.0079532955
000330 46 73 88 3c 48 34 6c 3c f7 7e a0 bc a8 f0 4e 3c
       0.01665653 0.014416762 -0.019591792 0.012630619
000340 28 37 ff 3b c8 ec c5 3c 2e b9 6a bc 70 93 d6 bb
       0.0077885576 0.024160758 -0.014326377 -0.0065483376
000350 85 13 04 bd 48 06 2c 3c f0 e8 86 bb 00 43 b9 bc
       -0.032245178 0.010499544 -0.004117124 -0.022614956
000360 95 70 9d ba dc 97 0a 3d 6c c8 d4 3c cd a7 9c bc
       -0.0012011701 0.03383623 0.025974475 -0.019122982
000370 88 97 ab bc 90 a7 bd 3c 54 e1 8a bc 90 64 62 3b
       -0.02094628 0.02315119 -0.016953148 0.0034544803
000380 e0 a3 e8 3c 48 f6 e2 bb 27 f2 97 bc 28 4d b1 3c
       0.028398454 -0.0069263317 -0.018548084 0.021643236
000390 86 02 cd bc 00 67 b3 bb ba f2 02 bd 60 36 72 bc
       -0.025025617 -0.005474925 -0.031969763 -0.014783472
0003a0 da 09 b1 bc d2 39 9b 3c a0 83 84 3b 18 76 09 bd
       -0.021611143 0.01894847 0.0040440112 -0.03355989
0003b0 e8 31 5f 3c 94 9a 25 3c dc 13 2e 3c 24 3d fd 3c
       0.013622738 0.010107655 0.010624852 0.030912943
0003c0 58 53 e0 bc be 5b d1 3c 36 45 b6 3c 40 e2 eb 3c
       -0.027383491 0.025556441 0.0222498 0.028794408
0003d0 e0 83 b8 bc 03 89 e5 bc 36 58 24 bc e1 d6 b2 bb
       -0.02252382 -0.028019434 -0.010030797 -0.0054577445
0003e0 e8 36 ba 3c 2f 1a 40 ba a8 87 5a 3c 7c c3 eb 3c
       0.02273126 -0.00073281204 0.013338007 0.028779738
0003f0 f8 1d 12 3d b7 d5 cb bb 3d 48 88 bc 8c 82 a7 bc
       0.03567311 -0.006220545 -0.016636008 -0.020447992

linear1.bias f4 [256]
000000 29 13 85 bc eb 71 1c 3c 33 09 ca 3c 04 ea 7f 3c
       -0.016244488 0.009548645 0.02466259 0.0156197585
000010 f7 a8 f6 bc 2d 76 0b 3c 11 32 92 bc 15 b0 37 bc
       -0.030109866 0.008512062 -0.01784614 -0.011211415
000020 f4 12 35 bc 9c f9 78 bc d2 18 fe 3b 22 bc e2 3b
       -0.011051882 -0.01519623 0.0077544237 0.0069194
000030 e7 40 a4 bc fc 5a f9 3b ba 2c b2 bc 97 c6 fa bb
       -0.02005048 0.007609723 -0.021749843 -0.0076530683
000040 26 db 56 bc f7 7f 26 3b f0 3e 80 3c 5e c2 91 3c
       -0.0131137725 0.0025405863 0.015655011 0.017792877
000050 97 3c b3 bc aa 80 8b 3c 40 47 cf 3c 4e 9b 8b bc
       -0.021879477 0.017029125 0.02530253 -0.017041828
000060 dd b9 1e bd 41 e9 02 bb 25 d8 80 3b ba c9 86 3b
       -0.03875147 -0.0019975456 0.0039320164 0.004113403
000070 8e 60 c9 bc 58 20 1a bb ce ac ac bc eb 41 67 bc
       -0.024582174 -0.0023517814 -0.021078493 -0.014114837
000080 e5 89 67 3c 64 a7 97 bc be 0c af 3c a2 9d fb 3b
       0.014131998 -0.018512435 0.02136838 0.0076787034
000090 fc a2 d0 bc d1 38 ea 3b 48 2b 9c bc 5c 8f dd bc
       -0.025468342 0.0071478863 -0.019063607 -0.027045898
0000a0 d7 f3 f9 3b 82 59 84 bc 58 db 05 bc 5b 47 d2 3c
       0.007627945 -0.016155962 -0.008169971 0.02566879
0000b0 a6 f7 fe 3b be 21 d5 bc bb a8 31 bc c2 37 1f ba
       0.007780987 -0.026017066 -0.010843451 -0.0006073677
0000c0 0c 10 85 bc 0c 12 26 3c c8 ab ca ba 9f d2 b5 3b
       -0.016243003 0.010136139 -0.0015462572 0.0055487896
0000d0 07 4e 2d 3b ea e8 0a bc c6 9a bd 3c 14 34 5c bb
       0.0026444213 -0.008478383 0.02314509 -0.0033600377
0000e0 9a 24 09 bd 91 70 02 3c ff 0c 93 bb e6 2e a8 3b
       -0.03348217 0.007961408 -0.0044876332 0.005132544
0000f0 09 e9 bd bc 4e fb 44 bc 69 a7 5a 3b d9 bc c5 bb
       -0.023182409 -0.012022806 0.0033363944 -0.0060344753
000100 97 8b 97 bb 74 5a 57 bd 5a ea 01 bd 11 73 5a ba
       -0.0046247947 -0.052576497 -0.031717636 -0.0008333186
000110 6b a5 e0 bc 4f 11 28 3d a9 3d 79 3c c1 14 ae 3b
       -0.027422627 0.04103213 0.015212455 0.0053125327
000120 37 17 d4 bc 5f fe 4e bb 25 7f 29 bc 5f 54 41 3c
       -0.025889976 -0.0031584722 -0.010345255 0.011799901
000130 69 f4 93 bc ce d5 33 3c d8 3b 54 bc 32 94 5c bc
       -0.01806088 0.010976268 -0.012953721 -0.013463067
000140 a1 ad 3f bd d9 5d ce ba 52 b5 30 bd 9f 2b 14 bd
       -0.046796445 -0.0015744522 -0.04314167 -0.036174413
000150 08 79 f5 3a ce 85 73 3c ba da 91 3c d8 d5 44 bd
       0.0018728087 0.0148634445 0.017804492 -0.0480555
000160 5d b3 3f bc 0e 2d 13 3c d6 75 80 3c 7a 16 08 bd
       -0.011700478 0.00898291 0.015681189 -0.03322456
000170 f0 93 17 bd f3 1c 34 bd de 36 d6 3b d9 c5 48 bb
       -0.03700632 -0.04397292 0.0065373024 -0.0030635505
000180 bc a7 2c bc 5a 04 db 3b 79 74 35 3b 8b c0 9f ba
       -0.010538038 0.0066838684 0.0027687831 -0.001218812
000190 bf 6b 8c 3c 31 5f fd 3c bf 4e 43 3c 68 28 ed 3b
       0.017141221 0.03092918 0.01192063 0.007237483
0001a0 c6 cd 67 bc e4 30 7b bc 31 ca b6 bc 33 9d 59 3c
       -0.014148181 -0.015331481 -0.02231321 0.013282108
0001b0 90 cf 26 bc b3 55 e5 bc ac fa f0 3c 34 f5 9b 3c
       -0.010181323 -0.027994966 0.029416405 0.01903782
0001c0 ce 8a cd 3c 44 51 43 bc 59 f5 e8 bc 6a df d8 bc
       0.025090601 -0.011921231 -0.028437303 -0.02647372
0001d0 45 7a 5a 3c e2 c1 f4 3b d8 40 0f 3c 69 0b 9b bc
       0.013334815 0.0074694017 0.008743487 -0.01892634
0001e0 5f 5e 9f bc 20 c3 b9 bb 82 bf 15 3d 1d 7b 80 bb
       -0.01945418 -0.0056690127 0.03655959 -0.0039209262
0001f0 c1 f0 b4 bc de 48 07 bc 5b 80 5c bc ca 6a ad 3b
       -0.022087457 -0.008257119 -0.013458337 0.0052922713
000200 f7 bf 19 bc 3e 2e 62 3c 65 08 1b bc 1e 77 c2 3c
       -0.009384147 0.01380497 -0.009462451 0.02373844
000210 d0 88 d1 bc 4c e0 9d bc e0 c7 6a 3c e2 b0 c5 bc
       -0.025577933 -0.019271992 0.0143298805 -0.024132196
000220 39 4c de 3c bf f0 ea 3b c2 b1 1b bb 06 e6 1b 3d
       0.027135955 0.0071698125 -0.0023757075 0.038061164
000230 65 bf bb ba 41 76 90 3c ee 54 13 bc 3e d2 96 3c
       -0.0014324008 0.017634513 -0.008992417 0.018410798
000240 91 ee f9 bc bb f2 01 bd 26 1f 93 bb 9b b9 4c bc
       -0.030509265 -0.031725626 -0.004489797 -0.012495424
000250 40 9d 92 3c 46 10 e8 3a b4 4b 74 bb 6f 59 88 bb
       0.017897248 0.0017705045 -0.0037276568 -0.004161052
000260 7e 46 35 bc e9 c6 26 bd 2c 56 04 3d 5f 98 0d 3d
       -0.01106417 -0.04071704 0.032308742 0.03456914
000270 07 d5 b3 3c eb 48 4a bc be 5a 76 3c f0 6b 68 3c
       0.021952165 -0.012346487 0.015036283 0.014185891
000280 8f 90 60 3c b3 1a 1a bc a2 83 fc 3a 94 84 dc bc
       0.01370634 -0.00940578 0.0019265304 -0.026918687
000290 da 2c ed bb dc d7 a0 3b a9 79 35 bd 91 0f 0f 3d
       -0.0072380127 0.004908545 -0.044305477 0.034926955
0002a0 ad 3d 0f 3d 4f 97 11 3d e2 a3 be 3a a2 22 c8 bc
       0.034970928 0.03554469 0.001454469 -0.024430577
0002b0 9f c1 e9 bc 28 e8 ee bc 36 29 59 bd 8d 96 a4 bc
       -0.028534709 -0.029163435 -0.053017817 -0.02009132
0002c0 2d 3f 6d 3c 7c f8 f5 bc 73 43 df bc 78 ae 1f bc
       0.014480394 -0.030025713 -0.027253842 -0.009746186
0002d0 cb 0b 04 bd ba d0 45 bd ff c6 1c bd 9d 50 9b 3a
       -0.03223781 -0.04829476 -0.038275715 0.0011849586
0002e0 09 0d cc 3c 5d 90 e1 3c 82 aa 31 bc d6 30 0c 3c
       0.02490856 0.027534658 -0.010843875 0.008556565
0002f0 b2 7b 0e 3d 15 f2 11 3c e5 91 b0 3c ad b0 8b bc
       0.034785934 0.0089078145 0.021553943 -0.017052019
000300 a6 12 a1 bc e7 44 e9 3c c8 86 8d bb 74 9d ef 3b
       -0.019662213 0.028475238 -0.0043190457 0.007312471
000310 df 2f 85 3c ef 02 a7 3c 16 1b 8f bc 42 62 25 bd
       0.016258178 0.020387141 -0.01746897 -0.04037691
000320 f0 89 be bc 4d ce c0 3c 62 1e 8e 3c c4 95 cb 3c
       -0.023259133 0.023535872 0.017348472 0.024851687
000330 fe 19 ca bc 48 5e 47 3c 9c c4 1a 3c 29 e6 9b bc
       -0.024670597 0.0121684745 0.009446289 -0.019030647
000340 db ad 0a bd 03 32 cf 3c fb 8f 9a bc 76 12 c6 3c
       -0.033857208 0.025292402 -0.018867483 0.024178725
000350 2d da 0b 3c 92 9e 8d 3c d8 38 3a bc a6 60 1b bc
       0.008535904 0.017287526 -0.011366092 -0.009483492
000360 2b fb 03 3c d3 43 2a bd 22 9b 58 3a 2c ad 51 3c
       0.008055489 -0.04156859 0.00082628627 0.012797635
000370 f6 f8 bc 3b fa bb 02 bd 76 81 a6 3c 01 fb ec bb
       0.005766983 -0.03191755 0.020325404 -0.0072320704
000380 7b a2 a3 ba e8 f5 1d bd 59 69 35 bc b2 89 f9 3c
       -0.0012484336 -0.038564593 -0.01107248 0.030461166
000390 2e 76 65 bd 6a 2c e1 39 f0 6a 4e 3c eb 8f 81 bb
       -0.056020908 0.00042948435 0.012598738 -0.003953924
0003a0 3a 51 a4 3c 98 2d 87 bc 81 8d c0 bc bf 71 4a 3b
       0.020058263 -0.016501233 -0.023504974 0.0030890552
0003b0 bb 43 b1 bc f7 41 04 3c 82 aa 45 3c d8 52 22 3c
       -0.021638742 0.008072368 0.012064578 0.009907447
0003c0 dc be 2b bd 16 d7 13 3c 6b 41 e1 bc ab 3f c3 bc
       -0.041930065 0.009023448 -0.027497014 -0.02383407
0003d0 3d cb 82 3c 18 1f c7 b8 03 fa 06 bc fa 68 40 3c
       0.015966052 -9.494851e-05 -0.008238318 0.011743778
0003e0 77 0f a1 bc b8 d0 75 bc d3 00 90 bc 2d 10 15 3c
       -0.019660695 -0.015003376 -0.017578518 0.009098095
0003f0 83 9d d6 3c 8e df ec bc d0 0d 17 bc 5a 2f 6a 3c
       0.026198154 -0.028915193 -0.009219602 0.014293516

linear2.weight f4 [3, 256]
000000 0d 8b 76 3d cb 25 71 3d e3 ed 2c bd 1c 25 d8 3c
       0.060191203 0.058873933 -0.042219054 0.026384883
000010 e1 22 f2 3a 33 30 15 bd f6 11 23 3d 57 a6 ac bc
       0.001847353 -0.03642292 0.03981205 -0.02107541
000020 a7 f1 75 bc 09 28 24 bd 74 36 0d bd 43 5b 22 3c
       -0.015011228 -0.040077243 -0.03447576 0.009909454
000030 fa 9c af 3c 68 4d a0 3c b0 19 8a 3c 72 fc 56 3d
       0.021437157 0.01956816 0.016857952 0.052486844
000040 57 87 0a 3d 7b db 25 3d 51 02 5e 3c 0a 76 7f bd
       0.033820476 0.040492516 0.013550357 -0.06236843
000050 c8 fa dd 3b 61 30 74 3c 15 31 5b 3d a9 2f b8 3c
       0.00677428 0.014904113 0.053513605 0.022483664
000060 ac a9 b4 bc f0 13 ad bc 54 9b bf 3b 47 24 e0 3c
       -0.022053562 -0.021127671 0.005847374 0.027361048
000070 76 f2 65 bd 7c cc 0a bc 25 08 65 bb 0a c7 26 bd
       -0.056139432 -0.008471604 -0.0034947481 -0.040717162
000080 c6 ce 3d bd c6 0c 7f bd cd 90 64 bc eb a2 2e bd
       -0.046339773 -0.06226804 -0.013950539 -0.04263584
000090 0d 31 33 bd f3 55 77 3c 7f ab f3 3b f1 44 ac 3c
       -0.04374795 0.0150961755 0.0074362154 0.021028968
0000a0 fd af 81 bd 17 6c 0a 3d 6e a2 51 bd a5 3c 3d bd
       -0.06332395 0.03379449 -0.051180296 -0.046200413
0000b0 24 02 1a 3d 61 88 43 3d 7d 31 73 3c ab d0 25 bd
       0.037599698 0.047737483 0.014843342 -0.040482204
0000c0 80 74 82 bd 08 02 7f 3d f5 67 51 bd aa a6 f0 bc
       -0.06369877 0.062257797 -0.05112453 -0.029376347
0000d0 53 aa b6 bc 47 63 58 3d 9e f3 1a bc 95 b3 24 bd
       -0.022298014 0.052829053 -0.009457497 -0.040210325
0000e0 9e 7c ec bc b1 90 c7 bc 01 0a 26 3d 39 67 d3 3b
       -0.028868016 -0.024360986 0.040536884 0.006451514
0000f0 d3 b7 5d 3d d5 fa 42 3d 33 ca 21 3d 7a 37 4e 3d
       0.054130387 0.047602493 0.039499473 0.050345875
000100 72 e8 7c 3c 2e 23 f1 3c 72 f1 2d 3c 91 be 3e bd
       0.015436279 0.02943572 0.010616647 -0.046568457
000110 d8 a5 fd bc f2 1d 0a bd 30 67 19 bc a8 4d 69 3b
       -0.03096287 -0.033719964 -0.009362981 0.0035599265
000120 2b 56 c6 3b d2 44 11 3d 52 91 4e 3d 0b bc d3 bc
       0.0060527525 0.035466023 0.050431557 -0.025846502
000130 31 47 28 3c 74 2c c3 ba c0 20 6a 3d 0b ef 5d 3c
       0.01027088 -0.0014890567 0.05716014 0.013545762
000140 9e ba 48 bd fc 2a 47 3d 8b b5 04 bd a1 06 a8 ba
       -0.049006097 0.048624977 -0.032399695 -0.0012819358
000150 4e c7 a5 3c 38 41 42 bd ba 59 da 3c 4e be 33 3d
       0.020236637 -0.04742548 0.026654113 0.04388266
000160 b3 a1 7d 3c c0 99 26 bd 0e 01 86 bc 52 c9 4d bd
       0.015480447 -0.04067397 -0.016357925 -0.050240822
000170 ff 70 67 3c 30 54 c2 bc d7 2c 74 bb 1e 42 c5 bc
       0.014126061 -0.023721784 -0.0037258172 -0.024079379
000180 00 d9 c4 3b 45 31 09 bd 71 3a 58 bb d6 61 45 3d
       0.0060073137 -0.033494253 -0.0032993818 0.048189007
000190 c7 ca 89 3d e6 c6 c8 bc 63 e6 06 bd a8 2a 1a 3c
       0.0672813 -0.024508905 -0.032934558 0.009409584
0001a0 70 cf 04 bc 40 43 d9 b9 67 64 39 bc 1d 05 3d bd
       -0.008106098 -0.0004143957 -0.011315442 -0.046147455
0001b0 6b bf a9 3c 3d 39 3f bc dd d1 27 bd 2a d9 15 bd
       0.020721158 -0.0116713615 -0.040971626 -0.036584057
0001c0 a5 00 7b bc 6d ab 04 3d 1c 59 e4 3c e5 16 21 bd
       -0.015319978 0.032390047 0.027874522 -0.039328475
0001d0 5d 6d 5d bb 9c b1 ae bb a2 b1 10 3d 10 53 4f 3d
       -0.003378711 -0.0053312313 0.035325654 0.050616324
0001e0 9a 02 84 3b f6 8a 28 3d 09 c7 59 3d 26 dd 8c 3c
       0.0040286304 0.04114815 0.05316833 0.017195296
0001f0 d8 9c 5a bc 9d 90 89 bd 9a 3c 08 3c d3 22 25 bc
       -0.0133430585 -0.06717036 0.00831523 -0.0100791035
000200 d4 84 51 3d 94 23 45 bc 48 cb 30 3d 4c ac 84 bc
       0.051152065 -0.012032408 0.043162614 -0.016195439
000210 6c 04 cd 3a 10 ae 7c bd 2e 63 8c bc 94 15 d7 3c
       0.0015641577 -0.061689436 -0.017137136 0.026255406
000220 10 f9 2a 3d 1d 20 47 3c e2 d9 9b 3c f0 97 36 bd
       0.04174143 0.0121536525 0.019024793 -0.044578493
000230 c8 72 a9 3c 8a 6d 06 bd cf a1 82 bd 99 83 50 bd
       0.020684615 -0.03281931 -0.06378519 -0.05090675
000240 0c 1e 47 3d 1d af 23 bc 74 d5 14 3d c8 e7 36 3a
       0.04861264 -0.009990481 0.036336377 0.0006977287
000250 36 d0 56 bb 16 70 35 3d bf ad 40 bc 2d 8b a0 bc
       -0.0032777912 0.044296347 -0.011760174 -0.019597614
000260 38 74 f6 3b 6a cd c6 bc 5b 13 96 bc 14 a8 7f 3c
       0.0075211786 -0.024267871 -0.018319776 0.015604038
000270 8b 4c 01 bd 01 27 f8 bc f5 6d 33 bd 94 b8 49 3d
       -0.031567138 -0.030292036 -0.043806035 0.049248293
000280 0f 02 b5 3c 61 8b 93 bc d6 0e 05 bd 39 3f 3e bd
       0.022095708 -0.018010797 -0.03248485 -0.046447013
000290 72 76 56 3d bb af da bc a5 9b 77 3c 81 6d 5e bc
       0.052359052 -0.026695123 0.015112792 -0.013575912
0002a0 84 51 43 3d d2 42 63 bd e6 65 8c bd 0a ba 47 3c
       0.04768516 -0.055483647 -0.06855373 0.012190351
0002b0 13 2a 59 3a c7 78 21 3d 5f 5a 9f bc 2b 6a 18 bc
       0.00082841626 0.039421823 -0.019452272 -0.009302656
0002c0 96 a0 0a 3d c7 bc dd 3b 68 0c 73 3d 17 c6 66 bc
       0.033844553 0.006766889 0.059338003 -0.014085314
0002d0 92 34 91 3c 75 7c e0 3c 61 1b 95 3b c9 5f 05 bd
       0.017725263 0.027403096 0.004550383 -0.03256205
0002e0 f3 fb 69 3d e1 94 b7 3c 6c 80 37 bd 13 91 2f 3d
       0.057125043 0.022409858 -0.044800207 0.042862963
0002f0 ad ee 19 3d db 0c 58 bd 06 d5 3b 3c 68 61 88 bd
       0.037581135 -0.052746635 0.011464363 -0.06659204
000300 c4 ee 68 bd fb ba 42 3c 1e 10 bd bc eb 5d e9 3c
       -0.05686833 0.0118854 -0.023078974 0.028487166
000310 1e 21 09 3b 3e 37 b5 3c f0 63 9e bc 60 64 1a bd
       0.002092428 0.022121068 -0.019334763 -0.03769338
000320 22 f4 40 3d dd 0a 4d bd 38 eb 16 bc 3d 67 19 3d
       0.047107823 -0.05005919 -0.009211354 0.03745197
000330 1f 48 a2 3c 12 21 32 bd 79 b1 ff 3c bd bb 5f bd
       0.01980978 -0.04348857 0.031212555 -0.0546224
000340 b4 c4 3a bd 7b 31 1e 3c 8f af e7 bc ec 94 b5 3c
       -0.045597747 0.009655352 -0.028281955 0.022165738
000350 ce 9f b3 bc 5a 4f 5b 3d 99 47 ba bc dc 34 1c 3c
       -0.021926787 0.053542472 -0.022739219 0.009534087
000360 9b 5d 21 3d db 9c b6 3c 54 7e 95 3b f8 c8 b9 bc
       0.03939591 0.022291591 0.0045621786 -0.022678837
000370 1d 91 70 bd a9 a2 85 bc e8 5d 07 bd 14 8e 6b bd
       -0.05873214 -0.016312914 -0.03304854 -0.057508543
000380 07 72 5c bc a0 24 16 bc 44 95 07 3b 77 40 d9 3b
       -0.013454921 -0.0091640055 0.0020688334 0.0066299993
000390 83 15 d7 bc c8 31 fc 3c d6 c7 12 3d 99 3e 16 bc
       -0.026255375 0.030785456 0.03583511 -0.009170198
0003a0 da ad a1 3c 21 0e 0a 3d 56 cd 00 3d e6 6e 76 3d
       0.01973622 0.03370488 0.031445824 0.060164355
0003b0 cb cc 6d 3c 03 6d 33 bd 8d c9 24 bd a9 84 8b bd
       0.0145141585 -0.043805134 -0.040231276 -0.06812412
0003c0 ab e7 25 bd 58 a2 d9 39 cf 45 8c 3c b8 86 f8 bc
       -0.04050414 0.0004151042 0.017123131 -0.030337676
0003d0 46 f0 36 bd 95 8b 9d 3a 3e 8d 36 3d 9b f3 14 bd
       -0.044662736 0.0012019748 0.044568293 -0.036365133
0003e0 70 77 da bc 95 21 81 3d a3 08 8c 3b 17 da 14 3d
       -0.02666828 0.063052334 0.0042734905 0.0363408
0003f0 8c 38 73 bd e9 91 01 bd 80 c5 b6 3c 13 98 37 bb
       -0.0593801 -0.03163329 0.022310972 -0.0028014227

linear2.bias f4 [3]
000000 19 76 bf bc 64 fd 55 bd b0 bc f6 3c
       -0.023371743 -0.052243605 0.03011927
