model/model.pth (torch, 16799 bytes, 4 tensors)

linear1.weight f4 [256, 11]
00000000: 6609 80be 52f6 a7bd dcee b13d f02f 1bbe
00000010: 3870 72be 292b 883e 1544 63be 9817 18be
00000020: 9afc a8bd da9b 84be 0e4c b3bd 06c5 e8bd
00000030: f554 533e 2466 44be 4cd7 4cbe ef47 5bbc
00000040: d4f9 55be 40a1 553e a829 913d 7ceb 5ebe
00000050: 51ed 9b3d 4caf 98be 694f 313d 5208 4b3e
00000060: 0644 b7bd d383 183e 0481 3f3e 928f 57be
00000070: f652 0ebe 7ad7 8e3c 282a 5cbe 192f 7f3e
00000080: 000e 353c 3882 0cbe 2428 403e 507a 49be
00000090: aaef c8bb 13d5 dbbd 6ec1 573d 258e 873d
000000a0: fae2 293e 939d 26be ee4a 7e3d bad0 51bc
000000b0: c5b8 37bd 30fb b73d 567f 903d 47c6 22bd
000000c0: 8aab 8c3e 6d29 343c 1edd 8cbe f04f d53d
000000d0: 0e81 8ebe ff9f 83bd a91d 533d 40a5 b83d
000000e0: 5b26 33bd 6cfe a13d 4783 fdbc 06ac 833c
000000f0: 5050 c6bd 9eb3 983e d38a 2dbe 1921 39be
00000100: 92e4 7d3e 0ac8 d7bd fbfa 553d 9827 a0bd
00000110: fb3a 11bd c697 8dbd e4a5 6b3e 5675 913d
00000120: 1364 60be 3a6f 873e a3c9 78be 4787 e73d
00000130: b869 9dbc 5b2f 2c3e 5158 e93d 24f1 f3bd
00000140: c69d c1bd ca81 fa3b a0d7 b7bb 4675 2fbd
00000150: 6c45 efbd 42bf dd3d 4b60 6b3e d052 49bd
00000160: 5e86 96be b9ee 3c3d 66cc 403e 09fe 1dbb
00000170: 27f6 333e 63b1 b03c 37cb 373d be61 8dbc
00000180: 3642 c0bd e535 133e 3d3b 0fbe 18f2 babc
00000190: c49b 1b3e 883b 6d3e 10ad 01be b307 a53c
000001a0: 22f9 51be f063 453c 2d48 633e 8695 3dbe
000001b0: 9856 65be 84b0 12be 5419 3dbe d038 ac3d
000001c0: 06b0 d0bc a36d 1e3d 5bd1 73bd f2fd 173c
000001d0: 7399 55be 1fad b9bd d6ec 3dbe b7bf 8c3e
000001e0: b49f 09be 8020 c73c 40e9 f63b 303d 33bd
000001f0: 1e64 39be 8223 d93c c0cb 34bd 1e82 89be
00000200: fe13 52be 2fa1 84be b67c 5bbe 73bf f43d
00000210: 1348 84be 650c f43d 9a52 9abe efe6 03be
00000220: 0959 7abd a092 34be d404 ba3d 679e 86be
00000230: a8f6 77bd 761d f73d 02d1 c23e 2b7c 2fbe
00000240: b5e4 a73e fd05 22bc 86a4 41be 7f5d d93d
00000250: 63d6 32be d114 a93d 92ce 203c 8858 62be
00000260: c167 963e e8c6 993d c3c3 93bd c3fb 813d
00000270: 6cde 683e 72c9 34be 62dd c33d 76a8 32be
00000280: 89a5 04be e95a 82be acea 303e c19c 923e
00000290: 8672 42be edae 5bbe c2e4 d13d 6d6d 78be
000002a0: 6044 3a3e 336b c93d 167e 1dbe 09a0 2c3e
000002b0: 624b 233e 9cf0 9abe 7b28 2a3e f8f9 8dbc
000002c0: 1708 273d d20b 4dbd 9148 ebbc 8840 bb3c
000002d0: 6820 3cbe 8a1c a23e 8b1a e53d b3e8 7bbe
000002e0: f2b8 d7bd 93c2 713c aad1 163e 3b06 023e
000002f0: 562c e3bb 459c 803e 42e2 56be 0c95 8a3e
00000300: fee7 303e 4506 813e b916 07be 5a0e 70be
00000310: d637 3d3e c99c 00bd d599 8cbe d002 a5bd
00000320: 9848 833e b1a2 66be aab9 5cbe 0098 703e
00000330: 686a 35be a9bb b73d 14c5 a8bd 1d94 38be
00000340: 8c13 7ebe 201f 7fbc 4865 da3d 7809 b0bd
00000350: c4c5 93be afcf 7f3d 6af2 6dbe 84e2 1fbe
00000360: f080 5cbe ceff 593d 5ad7 8bbe 646a 70be
00000370: 515e eabc 9ce9 203e 2eaf 6fbe 4465 79be
00000380: d045 45be c450 263e 4d35 253e 3ca1 25bd
00000390: 032a 3cbe 8ad7 99be ad38 e3bd 04fa f03c
000003a0: 8bb1 623e 439d 43be 5f81 693e 9661 7a3e
000003b0: 3d87 81be e2a3 13be ddaa 9cbe 9ee2 663e
000003c0: c1f0 3b3e 9c4e 9f3c fc3e 7abe 9a98 e93d
000003d0: 4361 8ebd 4910 3e3e 8a4f 2b3e a8be abbe
000003e0: 0856 61be 3718 9c3e e769 28be 94d2 083e
000003f0: 4d20 c7bd 1ab5 213e 2039 183e 2f12 0b3d
-0.2500717 -0.08201279 0.08688137 -0.15155005 -0.2367562 0.2659543 -0.2219394 -0.1485275
-0.08251305 -0.25900155 -0.08754741 -0.11365704 0.20637877 -0.19179589 -0.20004004 -0.0133838495
-0.20896083 0.20862293 0.070880234 -0.21769518 0.07613624 -0.2982124 0.043288622 0.19827393
-0.08948521 0.14894037 0.1870156 -0.21050861 -0.13898835 0.017436732 -0.21500456 0.2492031
0.011050701 -0.1372155 0.18765312 -0.19675565 -0.006132086 -0.10734 0.052674703 0.06618909
0.16590491 -0.16271047 0.062083177 -0.012806112 -0.044853944 0.08983457 0.070555374 -0.039739873
0.27474624 0.010996205 -0.2751245 0.104156375 -0.27832836 -0.06427001 0.051541958 0.09015894
-0.04373775 0.07909855 -0.030946387 0.016073238 -0.09683287 0.29824537 -0.16947488 -0.18079032
0.24794224 -0.10536201 0.052241307 -0.07820052 -0.03545664 -0.06913714 0.23012501 0.07102458
-0.21913175 0.26452047 -0.24295668 0.11305099 -0.01921545 0.1681494 0.11393798 -0.11911228
-0.09453921 0.0076448666 -0.0056104213 -0.04283645 -0.11683163 0.10827495 0.22985952 -0.04915124
-0.2939939 0.0461261 0.18827972 -0.0024107716 0.17574368 0.02156896 0.044871535 -0.017258521
-0.09387629 0.14376028 -0.13987441 -0.022820517 0.15196139 0.2316724 -0.12663674 0.020145273
-0.20505193 0.012047753 0.22195502 -0.1851407 -0.22396314 -0.14325148 -0.18466693 0.084092736
-0.02547456 0.038678776 -0.05952583 0.009276854 -0.20859317 -0.09066223 -0.18547377 0.27490017
-0.13439828 0.02430749 0.00753513 -0.043759525 -0.18104598 0.02650619 -0.044139624 -0.26857084
-0.20515439 -0.25904223 -0.21434292 0.119505785 -0.25836238 0.119164266 -0.30141145 -0.12881063
-0.061120067 -0.17634058 0.09082952 -0.26292726 -0.060537964 0.12066166 0.38050085 -0.1713721
0.32791677 -0.009889123 -0.18910417 0.10613536 -0.17464595 0.082559235 0.009814875 -0.22104084
0.29376033 0.075086415 -0.07215073 0.06346848 0.22741097 -0.1765497 0.0956371 -0.17447075
-0.12953772 -0.25459984 0.1727702 0.2863522 -0.18989 -0.21453448 0.1024871 -0.24260493
0.18190145 0.098349 -0.15380129 0.16857924 0.15946725 -0.30261695 0.16617005 -0.017331108
0.0407792 -0.0500601 -0.028721126 0.02285792 -0.18371737 0.316624 0.11186703 -0.24600486
-0.105333224 0.014755863 0.14728418 0.12697689 -0.0069327755 0.25119224 -0.20984748 0.2706684
0.17275998 0.25200096 -0.13192262 -0.23442975 0.18478331 -0.031399522 -0.27461115 -0.08057177
0.25641322 -0.22523 -0.215552 0.23495483 -0.17716372 0.0897134 -0.08240715 -0.1802525
-0.24812144 -0.015571386 0.10663849 -0.08595556 -0.2886182 0.062453922 -0.23237005 -0.15613753
-0.21533561 0.05322247 -0.27312738 -0.23478085 -0.028609427 0.15714115 -0.2340667 -0.24355036
-0.19264913 0.16241747 0.16133614 -0.04043697 -0.18375401 -0.30047256 -0.110947944 0.029416092
0.2213804 -0.1910296 0.22803257 0.24451289 -0.2529849 -0.14417985 -0.30599108 0.22547385
0.18353559 0.019446664 -0.24438089 0.114060596 -0.06952145 0.185609 0.1672956 -0.33543897
-0.22005475 0.30487224 -0.16446649 0.13361579 -0.09722958 0.15791741 0.14865541 0.033952888

linear1.bias f4 [256]
00000000: a848 2c3e 75d9 92bd d3be 86be 7827 61be
00000010: b945 6c3e 519d 62be ab4d ac3e decd 87be
00000020: 4c48 5f3e 82b8 833e 48e8 133e 61e2 a9bd
00000030: f3d2 8c3c 1d22 733d 1a8a b43d 69c5 4f3e
00000040: 15c0 b53c 455b 47be 9005 f23d 71e5 17be
00000050: 5872 b03b d828 67be 74ce 23be 2957 dfbd
00000060: e6c9 0c3d e9fe 3c3e 643d 2cbe 2e91 8fbe
00000070: 7f12 893e ac1f 12be 8978 863e e6d0 913d
00000080: ebe0 993d 27a3 43be 4f49 8d3d 4e97 97be
00000090: 5d35 a53e 77f4 1a3e 8af7 8a3e 76f8 edbd
000000a0: 0c74 babd ff34 803e 1a6e c83d 3090 6e3c
000000b0: 3f9a 0dbd dc23 843e 3004 d23d 67df d1bd
000000c0: c5c3 6fbe 87b1 183e b518 9bbd 9faa 7ebe
000000d0: 4816 99bd ba4d d83d 13d8 e1bd 01f4 96be
000000e0: 12a5 fd3d 0d36 9b3d ceb2 6d3e 76ab 52bd
000000f0: 2553 d9bb c4b4 8cbe 6a1c b33d 75bb 363d
00000100: 2d91 a43e d80a 42be d656 3d3d 1d94 22be
00000110: c1cc d3bd 7d28 7d3e f360 9c3e 17b4 233e
00000120: 64b4 913e 4bc7 11bd 48b4 5abd fcbf 283e
00000130: 145e a53e 31f2 a5bc b5a7 483e 2eca 1fbd
00000140: fdb9 fabd 1cd6 913e 58e6 d9bd 020d 55be
00000150: a43e a53e 4ce2 9bbd 9531 613e 27c6 47be
00000160: 689f eebd 6afc 993e ff01 36be 8081 b7bc
00000170: 9ab6 bb3e 30e0 5fbd dd2a 603e dc74 a43e
00000180: 44ca 3c3e 0d1b c6bd fc93 a73c 8254 e03d
00000190: 6ee8 163e 1328 753d 0cc7 813d e886 4dbe
000001a0: f0a9 853e 8977 49be 3c7b 9e3e 457e 863e
000001b0: 9608 b23e f377 223d 3ba5 42be 8513 d13d
000001c0: ad43 973b efc4 edbc d6aa ae3e c9b0 93be
000001d0: 8112 a43e a686 91bd 22cf 2ebd d358 3d3e
000001e0: 2d3a 6d3d cbc9 913d 1bf5 db3c e886 b93d
000001f0: caa1 a43e a6a4 03be 3259 5ebe 1f31 55be
00000200: 5cda 183e 5cbc 2abe d3ee 0cbd dcc4 36bd
00000210: 1bfa 9abe 1078 41bd 48c3 973e 2f1d 433e
00000220: b7ca 82be 762e 133e 43ea 4c3e 03b0 933e
00000230: 1e0f 073e c44e 1abe 9dd3 223e a46e 8a3d
00000240: 3cc5 093e 067e 3c3e 0914 453e abb7 0abe
00000250: 3f8c 333d 5b11 0d3e 39b9 12be d8a0 913e
00000260: 56bc 6e3c c436 853e 0dc3 a9bd 6073 8d3e
00000270: ea3d 2abd 57c9 29be 0c2d f93d ce0a e63d
00000280: 9250 70be 29e9 28bd c06f 823e 95e7 45be
00000290: 261c b3bd 0fe0 043e 3f38 203e d07b 17bd
000002a0: 3c7d e1bc c2da 3f3e b5f1 e7bb 676b 3a3c
000002b0: e8b6 3d3e e8a2 193e e989 2bbe 0d86 8b3d
000002c0: cc16 583d 74ac f7bc eb68 71be 339f 0f3e
000002d0: f8e5 8f3e ac13 1a3e f65b 0d3b 6bc2 6bbd
000002e0: c1e5 d63d db84 6bbe 109d bfbc bda9 4cbe
000002f0: e8e3 043e fa77 98be 1fc9 91be 7a94 c93d
00000300: 343d a9bd 580b bdbc 33cb 0abe 50b6 df3d
00000310: 2673 463d 64b3 6dbe 912b 653e 2ab9 5c3e
00000320: e6d2 653e 6994 823e a07d cd3d 3063 85bd
00000330: 3d68 2b3e f9d1 c13e f33e 2c3d 361a 8cbe
00000340: 0bd1 6f3e dd76 f63d 153c e23a bcb9 523e
00000350: 5563 6c3e f859 f0bd 195f 13be 3039 773e
00000360: e708 483e 60b6 3dbe e0a3 8e3e 4a60 663d
00000370: 0887 94bd a744 5fbd b3eb c1bd a4c5 6f3e
00000380: 0e6f c73c e8af a33e 0311 973e b0e7 ff38
00000390: 554d 8dbe a8e5 e93d dd9e d8bd 21b0 abbe
000003a0: 2585 babd 23d9 3e3b d778 193e 86fa ca3d
000003b0: 69b9 8fbe 9863 223e 3b0f 1e3e 1290 70be
000003c0: 36fc 013d f40f 83bd 9e62 d53c de1d 8ebe
000003d0: b358 9f3b 9bbf aa3d b9a8 823d 55ab 7bbd
000003e0: 60cc 72be ccc2 fcbb 95cd ffbd 49ae f43d
000003f0: 3073 2b3d f0ef 2b3e 0ac9 d73d 7fd8 aa3d
0.16824591 -0.07170383 -0.26317462 -0.21987712 0.23073472 -0.22130324 0.33653006 -0.26524252
0.21804923 0.25726706 0.14444077 -0.082951315 0.017190432 0.059358705 0.08815403 0.2029015
0.022186318 -0.1946841 0.11817467 -0.14833619 0.0053847246 -0.22574174 -0.15996724 -0.10905296
0.034372233 0.18456616 -0.16820294 -0.2804045 0.26771924 -0.14269894 0.26263836 0.07119922
0.07513603 -0.19105206 0.06898748 -0.29607624 0.32267275 0.15132318 0.27141982 -0.11619656
-0.091041654 0.25040433 0.09786625 0.014560744 -0.03457093 0.2580861 0.10254705 -0.10247689
-0.23414524 0.14911471 -0.07573072 -0.24869774 -0.07474953 0.105617 -0.11027541 -0.29483035
0.12385 0.07578669 0.2321274 -0.05143305 -0.006632226 -0.27481663 0.08745654 0.044612367
0.3214201 -0.18949449 0.04622539 -0.15876813 -0.10341788 0.24722476 0.30542716 0.15986668
0.2845794 -0.03559045 -0.053394586 0.16479486 0.32298338 -0.020257087 0.19595225 -0.039011173
-0.12242506 0.28483665 -0.10639638 -0.20805743 0.32274354 -0.07611522 0.2199157 -0.19509183
-0.11651498 0.3007539 -0.17774199 -0.022400618 0.3666275 -0.05465716 0.21891351 0.32120407
0.18436533 -0.09673128 0.020456307 0.109536186 0.14737102 0.05985267 0.06336793 -0.20070994
0.26106215 -0.19674505 0.30953395 0.2626821 0.34772176 0.039665174 -0.19008343 0.10208801
0.004616222 -0.02902457 0.34114712 -0.28845814 0.32045367 -0.0710576 -0.042678006 0.18490915
0.05791681 0.07118567 0.026850274 0.090589345 0.32154685 -0.12855777 -0.21713713 -0.2081952
0.14927047 -0.16673416 -0.034407448 -0.044621333 -0.3026894 -0.04723364 0.29641175 0.19054101
-0.25545284 0.14373192 0.20011239 0.28845224 0.1318936 -0.15069109 0.15901037 0.06759384
0.13454145 0.18407449 0.19245924 -0.13546626 0.04383492 0.13776152 -0.1432847 0.28443027
0.01457127 0.26018345 -0.08289156 0.27627087 -0.041562952 -0.16580711 0.12166795 0.112325296
-0.23468235 -0.041237984 0.25475883 -0.19326623 -0.08745603 0.12976097 0.15646456 -0.03698331
-0.027525537 0.18735793 -0.0070783743 0.011378146 0.18526804 0.1500355 -0.16751827 0.068126775
0.052756116 -0.0302336 -0.2357518 0.14025573 0.2810514 0.15046567 0.0021569706 -0.05755846
0.10493041 -0.22999899 -0.023390323 -0.19986625 0.12977564 -0.29779035 -0.28473756 0.09842773
-0.08263627 -0.023076698 -0.13554077 0.10923445 0.048449658 -0.23212963 0.223799 0.2155501
0.22443733 0.25503853 0.10033727 -0.06513059 0.16738982 0.3785551 0.04205222 -0.27363747
0.23419587 0.1203439 0.0017260337 0.20578665 0.23084767 -0.1173591 -0.14391746 0.24142909
0.19534646 -0.18526602 0.27859402 0.056244172 -0.07252318 -0.05450883 -0.09468784 0.23415238
0.024344947 0.31970143 0.29505166 0.00012202503 -0.27598062 0.114207566 -0.10577176 -0.33532813
-0.091074266 0.0029121123 0.14987503 0.09911065 -0.28071144 0.15858305 0.15435497 -0.23492458
0.031734668 -0.06399527 0.026048 -0.27757162 0.0048628687 0.08337327 0.063798375 -0.06144269
-0.23710775 -0.0077136513 -0.124903835 0.11947305 0.0418579 0.16790748 0.10536392 0.083420746

linear2.weight f4 [3, 256]
00000000: c03c 903c 27ec a5bd 6bc2 d0bd b4a2 203b
00000010: 0c2f 093c d18b 81bd 464f d4bd 682c d83c
00000020: 8e40 b03c 4bed 573c ec56 e23c edb9 fd3d
00000030: dcd2 453d 99bc 9fbb 2a95 513c a5b6 dabc
00000040: 1b68 9bbd 9042 35bd da37 1c3d 4051 36bb
00000050: 15d5 d0bc 4c42 683c 5d46 133d 29b8 2dbd
00000060: 75f4 e23c 52b6 c43c 41ff 24bd 7bad 28bd
00000070: eb57 773b 43e6 6ebd dd48 cb3c 2b9c fbbb
00000080: 9e47 8dbb 282c 7cbd 19d9 55bd f915 13bd
00000090: 5463 7bbd b6cb 7cbd 6418 a9bd 25a0 393c
000000a0: 9959 183d 52b0 9ebd 875d ecbd 5d5e c03c
000000b0: 83d8 9bbd 8f41 873c e63c e53b 3745 cebc
000000c0: 5211 73bc 511b 65bd bc58 81bd 7798 d23d
000000d0: 9986 f5bc 9d41 c3bc 1cf3 f13c b280 19bc
000000e0: 4ce2 5f3b 2879 87bd 3adc 7fbd fe19 5abc
000000f0: 5ab2 9dbd 9a03 1fbd 7511 c83c fa5a b2bc
00000100: 682d 18bd 8657 1d3d 9e63 0ebd b40c aa39
00000110: 6498 cebd a3a1 c73c 1357 00bd a298 d13a
00000120: 56d6 163c 28e8 6e3d d18a 62bd e506 06bd
00000130: 9d73 72bd 6214 253d af06 acbc 1596 cfbd
00000140: 5257 fe3c b13f 87bd 6538 c33d 60f4 7a3c
00000150: 1de3 74bd e707 453b 578b cbbc 78e2 993c
00000160: ee7a d5bd 0638 75bd 2d7c 4ebd 9e19 693d
00000170: b19a 9abd 0188 2cbd ea05 49bd 4cd4 8abd
00000180: 367e a53c d1c3 1f3c d5b9 45bd 8117 0cbd
00000190: 0ee5 97bb 06b0 143b f83a f4bc 5f07 1ebd
000001a0: 4883 b6bd 53f8 a9bd 84b4 92bd cb7b 6d3d
000001b0: ca57 56bd 4433 333b 03ee e93c 1a13 5c3c
000001c0: b096 8bbd 738b b43c 9059 1c3d b041 403b
000001d0: 7785 77bd 06f3 69bb ac21 8bbc 4524 703d
000001e0: fa4e 383d 0a3d 263c ad70 c8bd c97c b1bd
000001f0: d4da 96bc 61c1 72bd 0e86 d3bc 09ec f2bc
00000200: 8416 4ebd f194 ebbd 7942 e23b 140e 09bd
00000210: 307b 27bd 8d83 24be 7758 a1bb ac4c 66bd
00000220: dc43 8e3d 5ea0 ad3b 0a0e 87bc 2e1d 0f3a
00000230: 4844 613c 8b73 483c 4457 63bd e28c a73b
00000240: 67c8 46bb d253 35bd 9c45 3c3d 6e5f 5dbd
00000250: 2cc1 803d 447a 2cbd cb10 7d3b 8de8 c13c
00000260: 408f 3dbd ff02 f9bc f9b0 43bd 9441 75bd
00000270: 4339 1bbd b448 86bd d4bd fabc 1912 36bc
00000280: 591d de3c 168e 83bd 98b2 70bd 063f 8dbd
00000290: 6700 e4bb 201b 563c dca7 e83b 73de a53c
000002a0: 768a 37bd 9f65 44bd 0831 a53c ff0d 66bd
000002b0: 737d 47bd 1d6d d93c 206f 8a3c 4475 8fbd
000002c0: 8df6 a73c 1aa7 8fbd db88 873b 0510 d8bc
000002d0: 6278 9dbd 3ffa cfbd 675d 9bbd ab37 9fbd
000002e0: 95c9 b33b 117d 72bd 997f a8bd 29e9 6c3d
000002f0: f6db d33c 5089 bbb8 cf8c babc be25 933c
00000300: ba4c cf3b 1a49 eaba 2e3f d9bd b195 83bd
00000310: f5b7 0bbd d924 d03b dbdb 98bd 5166 f3ba
00000320: 49e6 0cbd b77d 11bd b2b1 dfbd 5a59 3a3c
00000330: ad8e 9dbd 8103 e1bd 1384 313c 441b 94bc
00000340: ddfb 803b 0e3d d2bc 54f1 5ebd 346e 6dbd
00000350: fd77 3a3c 128e 0d3d d478 973d bc1e 933b
00000360: f235 bcbc 0c9c e33c 6790 5bbd da9a bdbc
00000370: 38e7 d33c 162b 94bd 4932 0abd 716f 4ebc
00000380: 8df1 7d3c acba 7b3c 67ee 4f3c 918e ff3c
00000390: 368b 91bd 48f8 5fbd 18ad 8b3b 8fb8 ca3b
000003a0: 22f2 83bd c9e3 49bd db8a 4bbd d32f 823d
000003b0: fa8b 5fbd 9033 91bc 9b57 ffbc 8033 db3a
000003c0: ca92 26bd a415 843b 5c62 6dbc f086 923b
000003d0: 87b2 99bc 25d7 ffbb f50f ff3c ded9 0abc
000003e0: c976 8f3d 2fb6 423d 0a09 743c ae3a 8d3c
000003f0: bd66 80bd d6bf 7d3b bec2 8abd cf86 9b3c
0.017607093 -0.08101683 -0.10193332 0.002451104 0.008373033 -0.06325496 -0.10366683 0.026388362
0.021515157 0.013179134 0.027629338 0.12388978 0.048296794 -0.0048747775 0.012791911 -0.02669842
-0.07588216 -0.044252932 0.0381392 -0.0027819425 -0.02549223 0.014175963 0.035955776 -0.042411957
0.027704457 0.024012718 -0.04028249 -0.04118107 0.0037741612 -0.058325063 0.024815017 -0.007678529
-0.004311516 -0.06156555 -0.052208994 -0.035909627 -0.061374024 -0.06171771 -0.08256605 0.011329685
0.037194822 -0.07748474 -0.115412764 0.023482496 -0.07609656 0.016510753 0.006995785 -0.025179489
-0.014835672 -0.055934254 -0.06315753 0.102829866 -0.029971408 -0.023834998 0.029534869 -0.009369062
0.0034161983 -0.066149056 -0.062465884 -0.013311861 -0.077000335 -0.038821794 0.024422387 -0.021771897
-0.037152678 0.038413547 -0.03476297 0.0003243439 -0.1008766 0.024369067 -0.03133304 0.0015990923
0.009206375 0.05832687 -0.055308167 -0.03272142 -0.05919229 0.04030264 -0.02099928 -0.10136048
0.031047497 -0.06603945 0.09532241 0.015317053 -0.059786905 0.0030064525 -0.024846716 0.018784747
-0.104238376 -0.05986788 -0.050411392 0.056909196 -0.07549036 -0.04212189 -0.049077906 -0.06778774
0.020201784 0.009751276 -0.048272926 -0.034202103 -0.0046354597 0.0022687926 -0.029813275 -0.03858125
-0.08911759 -0.08299317 -0.07163337 0.057979386 -0.052329816 0.002734379 0.028555876 0.013432289
-0.06815851 0.02203915 0.03817135 0.0029336028 -0.060430016 -0.0035697832 -0.01698383 0.05862834
0.044997193 0.010146389 -0.09787116 -0.08666379 -0.018414892 -0.05926645 -0.025820758 -0.029653566
-0.05031444 -0.11503018 0.006904897 -0.03346069 -0.040888965 -0.16065808 -0.004923876 -0.056225464
0.06946537 0.0052986583 -0.016486187 0.0005459365 0.01374919 0.012234579 -0.055503145 0.00511323
-0.0030331851 -0.04426939 0.045964822 -0.054046087 0.062868446 -0.04210879 0.0038614746 0.02367046
-0.046279192 -0.030396936 -0.047776196 -0.059876993 -0.037896406 -0.06556836 -0.030608095 -0.011112713
0.027113603 -0.06423585 -0.05876407 -0.068967864 -0.006958056 0.013067991 0.0071000885 0.020247674
-0.04480978 -0.047948476 0.020164981 -0.05616569 -0.048703622 0.026541287 0.016898692 -0.070047885
0.020503307 -0.07014294 0.0041361875 -0.026374826 -0.07688977 -0.101551525 -0.075861745 -0.0777429
0.005486677 -0.059201304 -0.08227462 0.057839546 0.025861721 -8.942431e-05 -0.02277222 0.017962333
0.006326285 -0.0017874569 -0.10607754 -0.06425036 -0.034110982 0.006352049 -0.07463809 -0.0018569921
-0.034399305 -0.03552028 -0.109225646 0.011373842 -0.07693229 -0.109869964 0.010834712 -0.018079408
0.0039362744 -0.025663879 -0.054429367 -0.057966426 0.0113811465 0.034559317 0.07396093 0.004489748
-0.022974942 0.02778437 -0.05360451 -0.023145128 0.02586709 -0.072347805 -0.033739362 -0.012599812
0.015499485 0.01536433 0.012691117 0.03119591 -0.071066305 -0.05468014 0.0042625777 0.006186552
-0.064426675 -0.0492895 -0.04969297 0.06356778 -0.05457685 -0.017724782 -0.031169703 0.0016723722
-0.040667333 0.0040309 -0.014488783 0.004471652 -0.018761886 -0.0078076296 0.031135539 -0.008474795
0.07005078 0.047537025 0.014894733 0.017239895 -0.06269596 0.003871908 -0.067754254 0.01898518

linear2.bias f4 [3]
00000000: cba3 3bbd 0a49 35bd 1b3f 98bd
-0.045810502 -0.04425911 -0.074339114
