model/model.pth (torch, 16799 bytes, 4 tensors)

linear1.weight f4 [256, 11]
00000000: a6b9 293c 72d9 a4bd 679c 2dbe f687 56be
00000010: f0a8 a83e cdca aabd 98b7 a53d 212d b13e
00000020: 6058 a2be 1da5 013e 64b4 dfbd c127 8cbe
00000030: 43c7 a33d ffa0 6a3e 8923 803e f0ab da3d
00000040: 2ed1 113e 9463 8fbe 9492 cfbd e832 cc3d
00000050: 56f6 09be ffff 04bf 68d2 4d3d 65a9 67bd
00000060: 2a4f 423a 5f5a 8b3e fa91 8dbe 0866 eabe
00000070: cfef e6be 1996 b23e 9b00 afbe 6368 b9be
00000080: 66e0 98be f562 bf3d dfe9 f0bd d67c 29bd
00000090: 157b f53c fe90 67be 28c0 8abe 7f4f 823e
000000a0: 0659 c0be e76f fabd a33c 253e 1df5 0b3e
000000b0: fa3e 51be 5673 b23e c4b9 34be d7d9 873e
000000c0: 5abf bf3e c569 edbe 0efc 9cbd 5a6b 8c3e
000000d0: 5ba5 9a3e 3e7f d4be 84df 76be 607e bebe
000000e0: 9306 bb3e a017 443e d45b 903d 2fc3 6f3d
000000f0: ef4b e6be c31b 1dbe c0ee a43d b4b3 493d
00000100: 68b6 603d 744b 4c3e ea54 a33e a14a 833e
00000110: df22 e63e df08 c13d 10b4 dd3d a4c4 87be
00000120: d771 0fbe 6f14 c53c 1b4d 31bd e535 073e
00000130: 8ae0 013e bf7f 1dbc b0bd 853e 2aca 96ba
00000140: c21d 3f3e d7e5 c73e 79f7 d4be cd12 e7bd
00000150: 558d 023e b111 993e ffef 75bc 2287 77be
00000160: 902a 063e 86be 353d 12a6 c53e 5e85 88be
00000170: 693d b93a 07ab 1bbe b6c4 a63d e644 083f
00000180: 7408 833e 7ca8 bd3e 653f e43d df78 a9bd
00000190: f7a1 19be 8d39 b13e d795 60be 540d e03d
000001a0: 4cf5 c93e bab0 a6be ccdf b0be ebe9 9a3e
000001b0: 28ad f43d d665 a0bd 7ac3 cbbe df64 a33d
000001c0: c945 4c3e d79f e93d 788b 3c3e bb7a fdbd
000001d0: 328e 653e 1029 9fbe bd3e f33d b407 033e
000001e0: 4655 2e3e 73ab 86bd be8b aa3d d70a b4bd
000001f0: 6e9b 943e 3a8f d0be a318 86be 7a65 083f
00000200: 4f12 1dbe 6fcc e3be 32b1 b5bd 4f75 793e
00000210: b462 3ebe 68b6 9b3e a973 1a3e 9825 253d
00000220: 6417 8abc d6b2 8d3e e0fd 833c 4430 883c
00000230: 107b c03d d604 803d d9de 8cbd bc17 aabe
00000240: 2277 8cbd e76d 033d c39b 32bc 6026 ab3e
00000250: 9395 d7be 8f78 1a3e 6a04 f23d 7e7b 98be
00000260: 476f f03e e38b a8bd aa59 b93e 0935 093f
00000270: e318 58be c1da 293e 00c9 36be e996 1d3e
00000280: 55c0 a3be 07ec 173e e4b2 eebd 5185 37bd
00000290: 2c3d ecbc ea5d 8ebe b04a fdbd a349 4bbe
000002a0: f963 b13e c470 83be c963 97be df53 d7be
000002b0: 960d 9a3e 1c72 edbd 8d83 93be aa7e bbbe
000002c0: 022a 24be 49cc e9bd 5618 413e 9c20 9b3d
000002d0: f1ac 41be b53e 893e 462f bdbe baef 08be
000002e0: 8472 f93d ccaa 96be c724 303d fbce c0bd
000002f0: feb3 12be f4a0 5bbd bb67 3dbd cac1 d43e
00000300: 7e3e 3dbe ca35 50bd dbc4 28be 51f4 56be
00000310: 23f4 033e 2032 303e efa1 b93d 5c9e 30bf
00000320: 8897 fb3d f942 81be ddd4 4bbe b8d4 413e
00000330: 7015 3fbe e8cf dd3e bdd4 863e 45a7 b13e
00000340: e205 523e 7ef5 0fbd 263a a33d 771e fdbd
00000350: 39e5 e6bd e36c c43e 0cc8 6abe 25fb 293d
00000360: 8936 e53e 2d1b ad3d 13b1 55bd e45e 36bc
00000370: 73b9 86bd 3305 373f 3d36 7ebd 62b5 a33e
00000380: 8496 1f3e c3b9 53be 77da eebe 97bd 933e
00000390: 83be d93d 72f5 cabe 44ad ef3c 956e 243e
000003a0: bc69 60be e86a 833e b696 dcbd 873e 973e
000003b0: 6837 99be b14e 7d3e c830 95be b604 1b3c
000003c0: 49a1 f7bc beb8 af3e bca7 2d3d 20e8 2dbe
000003d0: 89cb 18be 8385 d4be 08fb 9e3e 59c4 22bf
000003e0: 169b b73e 292e c4be 08f7 0f3e 83bf 89be
000003f0: 31b0 56bd e0f8 c43e 7d29 d53e d850 ac3e
0.010359203 -0.08049287 -0.16954194 -0.20950302 0.3294139 -0.083394624 0.08091658 0.34604743
-0.3170805 0.12660642 -0.10923079 -0.2737408 0.079969905 0.22912978 0.2502711 0.10677326
0.14239952 -0.2800566 -0.101353794 0.09970647 -0.13472876 -0.5195312 0.050249487 -0.05655803
0.0007412309 0.27217385 -0.27650434 -0.4578097 -0.45104834 0.3488014 -0.3418015 -0.36212453
-0.29858702 0.093450464 -0.11763357 -0.04137882 0.029965917 -0.22613904 -0.2709973 0.25451276
-0.3756792 -0.12228375 0.16136412 0.13667722 -0.2043418 0.3485362 -0.17648989 0.26533386
0.37450677 -0.46369758 -0.07665263 0.27425653 0.3020428 -0.41503328 -0.24108702 -0.3720579
0.36528453 0.19149637 0.07048765 0.05853575 -0.44979808 -0.15342622 0.080533504 0.049243644
0.054861456 0.19950658 0.31900722 0.25642875 0.4494848 0.0942552 0.1082536 -0.26517212
-0.1400827 0.024057595 -0.043286424 0.13204153 0.12683311 -0.009612977 0.26121283 -0.0011504341
0.18663695 0.3904254 -0.41595057 -0.11282883 0.12749226 0.2989631 -0.015010833 -0.24172643
0.13102174 0.04437115 0.38603264 -0.2666425 0.0014132682 -0.1520196 0.081429884 0.5323013
0.25592387 0.37042606 0.11144904 -0.082750075 -0.15003191 0.3461422 -0.2193216 0.10940042
0.3944496 -0.32556707 -0.34545743 0.3025659 0.119470894 -0.07831924 -0.39797574 0.07978224
0.19948496 0.1140744 0.18412578 -0.123769246 0.22417524 -0.31086016 0.11877201 0.12795907
0.17024717 -0.0657567 0.08327435 -0.0879113 0.29024833 -0.40734273 -0.2619067 0.5327984
-0.15339015 -0.44491908 -0.08871688 0.24361156 -0.1859234 0.30412602 0.15083183 0.040319055
-0.016856857 0.27675503 0.016112268 0.016624577 0.09398472 0.062509224 -0.06878442 -0.33221233
-0.0685866 0.032087233 -0.010901394 0.33427715 -0.42106304 0.15085052 0.11817248 -0.29781717
0.46959898 -0.08229806 0.3620122 0.5359655 -0.21103244 0.16587354 -0.17850113 0.15389599
-0.31982675 0.14836131 -0.116552144 -0.044804875 -0.028837763 -0.27806026 -0.12367761 -0.19852309
0.34646586 -0.2567197 -0.29568318 -0.42056176 0.3008849 -0.1159403 -0.28811303 -0.36620075
-0.1603165 -0.114159174 0.1885694 0.07574579 -0.18913628 0.26805654 -0.3695013 -0.13372698
0.12180045 -0.29427183 0.043003824 -0.094144784 -0.14326474 -0.053620294 -0.046241503 0.415541
-0.1848087 -0.050832547 -0.16481344 -0.20991637 0.128861 0.17206621 0.090640895 -0.6899164
0.12284762 -0.2524641 -0.1990542 0.18928802 -0.18660522 0.43322682 0.2633418 0.3469793
0.20510057 -0.03514623 0.07970075 -0.12359326 -0.112741895 0.38364324 -0.22927874 0.041499276
0.4476817 0.08452449 -0.052170824 -0.011131022 -0.065783404 0.7149231 -0.062063444 0.31974322
0.15584761 -0.20676331 -0.4665105 0.28855583 0.1063204 -0.39640385 0.029257424 0.16057809
-0.21915334 0.256675 -0.10770933 0.29539892 -0.29925084 0.2473705 -0.2913878 0.009461572
-0.030228274 0.34320635 0.042396292 -0.1698308 -0.14921393 -0.4150811 0.31050897 -0.6358085
0.3586051 -0.38316467 0.14059079 -0.26903924 -0.052414123 0.38471127 0.41633216 0.3365543

linear1.bias f4 [256]
00000000: ca74 d5bc efcf d73e 96d2 873d bba4 1c3e
00000010: 3401 a93a 6ede 69bd 5311 4abd b9c9 babd
00000020: c563 39be d12f 0bbd a100 f53e 1bd0 333e
00000030: f845 7b3e 3ad6 5abd 0c09 8b3c 7cb2 c93d
00000040: 7e75 a43d 4e3e 27be 382b 16bd 5b5e 14bd
00000050: f07e e23d 768a c9bd c429 f13e f16d 84be
00000060: 4894 16be b704 a9be 89a4 25be 1c46 50be
00000070: e474 273e 5a2d 99bd aa84 79bb e7dd 9c3b
00000080: 8ecc c93e eeec 9e3d 3429 4cbc 09b3 c13e
00000090: 3b7d f13d c286 18be 7c0b d6bc 6fb7 5b3d
000000a0: 0099 77b6 244c 803d 7751 28bd 41e7 0fbe
000000b0: 03f8 0b3e c2f8 24be 6605 24be d653 3d3e
000000c0: d9ac 363e b7ad c0bd 4675 e5bd 8cce 4bbe
000000d0: cb10 4d3d fc3c 373e 766c 22be 84a8 7dbe
000000e0: 0592 cfbd 80f9 c63c 1c82 dcbc 405b aebd
000000f0: 4957 02be 4d38 16be 07b1 8a3e 0522 f73a
00000100: 15b7 8a3b 4f9a 833e c34d c03d 3cdb 7f3e
00000110: bd12 0f3e e1a6 68be 8c22 96bc 5a3e 9d3e
00000120: 9208 28be e7ff babd 6bdf 193e 2795 d6be
00000130: fcd4 37be 8661 ad3c 5a7c 42bd 84ea 66be
00000140: 7d45 7e3e e3cc 46be c6e5 c43e b9fd 573e
00000150: 35d6 60be 2f90 af3d c118 493e d051 81be
00000160: a4e5 eebd 0dd1 72be e428 ddbd 55de 02be
00000170: 00b6 fcbd 2548 b23d 6300 3bbd 6db3 0f3d
00000180: 35c1 9b3e 3b74 29be e3dc 8abe d393 95be
00000190: ee90 13bd 03f8 853c 60c6 2cbd f1ea 3a3e
000001a0: 5d99 7bbe ee14 0d3e 3c8f 6d3e 1077 a73d
000001b0: 0e3e 603e ed82 443c fddd 65be 13ad b23e
000001c0: c081 483d b018 903e 5501 36be dfd3 69be
000001d0: 5aef eebd f1fe 013e b9b7 0e3b 1f67 98be
000001e0: f4e6 edbd b4e9 25be c31d 5abe ce1d 5f3e
000001f0: bfba 4bbe ad3b 5dbd a57a 80bd 905c 08be
00000200: e0a0 34be 309b b63d 7722 1c3d a1b2 24be
00000210: f154 94bd 33a5 3abe 7a01 193f 2fc6 2ebe
00000220: 91bf 37be e3d8 8b3e f44f f03d 7207 b13d
00000230: 1204 81be 9e3c 97bd a689 f3bd dd64 a53e
00000240: 0ff3 7fbe 3cbd 593e 6c63 da39 3936 a93e
00000250: b68c 3a3e ead5 ecbc aff5 173e 5a69 1bbe
00000260: 1f8a 8cbe 4879 a23e c841 0d3e 9f53 513d
00000270: 0997 5a3e 2ab8 19be 3edc 8fbe 3f84 12be
00000280: bdc2 413e 383a 8e3e 905d 1b3e cffb 5ebe
00000290: 7dc2 a3be f486 e13d 04a8 1abd 9f3b 173e
000002a0: d430 19be 0df8 fb3d d8e9 ad3e 32d2 4b3e
000002b0: ebb5 ab3e bc3d 9d3e 1fbf 49bd b644 02be
000002c0: 6856 4dbe 17e0 293e 8b2e 8abe 5b82 ef3d
000002d0: ecce e73e 38b9 81be 1404 b83d b85d b53e
000002e0: 2e9a 743e 3fca 8ebd 795a 15be 51b0 05be
000002f0: e1aa 843e ce07 54be d34b 6a3d 8a00 813e
00000300: 60db 1bbc a6b1 8e3c 501d a3be 2ece 333e
00000310: 149c 9fbd 2b38 be3e 64b5 bc3e 0f45 82bd
00000320: f3e4 e13e 307a 8bbd 2f6c 66bd 9079 7dbd
00000330: e8e0 9f3e 8ce7 0d3e 676a 5dbe 5884 47be
00000340: 8635 97be 4924 6fbd 54fb 733e dd08 02bd
00000350: bd35 91be c840 62be 66f0 59bd 9d7b 1abe
00000360: e1fa 9c3e 70a8 483e 89a4 fb3d 4280 d23e
00000370: 2fba 763c d9cd 853e 2937 cf3e 721e 793e
00000380: 8416 d9bd ab09 853d ad95 47be 205d 923e
00000390: 1eb2 b6bc 04bd e8bc b05e 0fbc 151c 2ebe
000003a0: d8c6 44be 0536 96be c440 fe3c 28ec 763e
000003b0: c55e 9c3d ec64 46bc cbc2 ccbd 3249 a63e
000003c0: 5f61 753d b256 303c b89f 403e c0c7 253e
000003d0: 18d9 3e3d dfdb 22be 7fef 92be 8a8b 3f3d
000003e0: 47ae a9be 19f5 1c3d cc7e 60bc 599e a0be
000003f0: 6419 46bd 380e 963e aa9f 2e3e 1535 1c3e
-0.026056666 0.42150828 0.06631963 0.15297215 0.0012894035 -0.05709689 -0.049332928 -0.09120507
-0.18104465 -0.03398115 0.47852042 0.17559855 0.2453841 -0.05342696 0.016972087 0.09848496
0.08030222 -0.16332361 -0.03666231 -0.036222797 0.11059368 -0.098408625 0.47102177 -0.2586513
-0.14705002 -0.3301141 -0.16176046 -0.20339245 0.16353184 -0.07479353 -0.0038073459 0.004787195
0.39413875 0.077600345 -0.012460995 0.37831905 0.11791464 -0.14895156 -0.026128523 0.053641733
-3.6894926e-06 0.06264523 -0.041093316 -0.1405306 0.13668828 -0.16110519 -0.16017684 0.18489012
0.17839374 -0.094081335 -0.11204009 -0.1990301 0.050064843 0.17894357 -0.15861687 -0.24771315
-0.10135273 0.024288893 -0.02691751 -0.08513498 -0.12728609 -0.14669915 0.27088186 0.0018854743
0.004233251 0.25703666 0.09389832 0.24985975 0.13971992 -0.22719909 -0.01832702 0.30711633
-0.1640952 -0.09130841 0.15026633 -0.4191067 -0.17952341 0.021164667 -0.047481872 -0.22550398
0.24831195 -0.19414096 0.38456553 0.21092881 -0.21956713 0.08572423 0.19638349 -0.2525773
-0.11664894 -0.23712559 -0.10798815 -0.12780125 -0.12339401 0.08705167 -0.045654666 0.035083223
0.30420843 -0.16548245 -0.27121648 -0.29214343 -0.036026888 0.016353613 -0.042181373 0.18253686
-0.24570222 0.13777515 0.23199171 0.08177006 0.21898672 0.011994106 -0.22447963 0.3489767
0.048951864 0.28143835 -0.17773946 -0.22834729 -0.116667464 0.12694909 0.0021776988 -0.29766175
-0.116163164 -0.16202432 -0.21300416 0.21788713 -0.19895457 -0.05401199 -0.062733926 -0.1331656
-0.17639494 0.089163184 0.038118806 -0.16083767 -0.07242764 -0.18227081 0.5976788 -0.17067789
-0.1794417 0.2731391 0.11734 0.08643998 -0.25198418 -0.07384609 -0.11891489 0.32303515
-0.24995063 0.21263593 0.00041654275 0.3304918 0.1821774 -0.028910596 0.14839815 -0.15176907
-0.27449128 0.31733155 0.13794625 0.051105138 0.21346678 -0.1501166 -0.2809772 -0.1430826
0.18921943 0.27778792 0.1517241 -0.21775745 -0.3198432 0.110120684 -0.03775789 0.14768837
-0.14960033 0.12303171 0.3396747 0.19904402 0.3353723 0.30711162 -0.049254533 -0.12721524
-0.20052493 0.1658939 -0.26988634 0.11694785 0.45275056 -0.25336623 0.08985153 0.35423064
0.2388694 -0.06972169 -0.14585294 -0.1305554 0.2591162 -0.20706102 0.057201218 0.25195724
-0.009512752 0.017418694 -0.318583 0.1755912 -0.077934414 0.37152228 0.3685714 -0.06360828
0.44119987 -0.06810415 -0.056255516 -0.06188351 0.31226277 0.1385786 -0.2162262 -0.19484079
-0.29533023 -0.058384214 0.23826343 -0.031746734 -0.28361312 -0.22095025 -0.053207777 -0.15086217
0.30660155 0.19595504 0.12287242 0.41113478 0.015059038 0.26133612 0.4047177 0.2432802
-0.10599998 0.06495985 -0.1949069 0.28586674 -0.02230173 -0.028410442 -0.008750603 -0.170029
-0.19216478 -0.2933809 0.031036742 0.24113524 0.07635263 -0.012109023 -0.09998091 0.3247772
0.059907313 0.010762857 0.18810928 0.1618948 0.046593755 -0.15904187 -0.28698346 0.046763934
-0.33140776 0.03831968 -0.013702106 -0.3137081 -0.048364058 0.29307723 0.17053095 0.15254624

linear2.weight f4 [3, 256]
00000000: 5026 acbe 2598 c83e 28fa 573e f2f5 0a3e
00000010: 0f07 973e b633 9ebd aac7 5fbe d038 333e
00000020: 4519 cbbe a013 543e 50e2 343e f089 693e
00000030: c19e aa3d 6113 83be 7b1a 153e d380 7d3e
00000040: 1fb9 43be cc06 84be ec7f 4fbe 49c3 a5bd
00000050: f0ab 653e d4a8 3d3e cace 8b3e cbef 98be
00000060: e36c a7be 2922 a73c 744f c4be 72f7 7ebd
00000070: 3345 16bc 63ca c13e 3707 173e 2e0e f8bd
00000080: b3de c13e 6fb6 18bd ced1 b4bd 2977 123e
00000090: 9eeb ccbc 3ef8 cebd e7b1 4dbe b3d1 683e
000000a0: 8d8f ae3e 62a6 b7bd 454c 8a3e 634c c7be
000000b0: 27ba 893e 171e 9bbe 1053 c1be 60f2 a0bd
000000c0: 0364 c43d 4d9a 6cbe 951b c43b 75eb 89be
000000d0: b939 a53c de69 853d 649b 99be b8c4 91be
000000e0: a765 58be 4243 473e c8a9 30be f041 803e
000000f0: da82 123e babe c9be 57e8 203d e91a 8bbd
00000100: 4ba1 86be 0496 9f3e b78b aabc 1326 ab3e
00000110: a443 77bd 8300 a4be 2f8d 2ebe dd1c ad3d
00000120: a678 eebe 2c27 79bd 6eb3 973d 9bdb a73c
00000130: 83e7 79bc 7ec6 883e c8b8 3ebe 20f7 ee3c
00000140: b7b0 b63d a20d 31bf 0ec8 a33e 5b1b ad3e
00000150: 20a0 f6bd c1df 64bc eabb 363e 5902 99be
00000160: e031 64be dea0 13be 777e 92be 8cde 94be
00000170: 0895 96be 74c3 88bd b135 66be cb24 55be
00000180: d83a 3a3e 8af9 c4be efdc 17bf acb3 6c3e
00000190: 3366 8dbe aed1 a3be 8901 a0be 9f7d 8e3d
000001a0: f4c2 6bbe 6891 c93e 1d49 7d3b e4a2 cfba
000001b0: 3ad9 90bd 5cca a3be f1ca 80be b455 ef3d
000001c0: b492 96be a254 4f3e 431b b4be f434 6ebe
000001d0: 6694 16bf d502 29bc 5609 663c 44a4 9dbc
000001e0: 45c6 25be 82e4 07bd 9ee2 67be 65c9 ff3d
000001f0: 1259 a1be 26a7 743e 8415 ae3d 3833 34be
00000200: 3156 8abe 1340 8fbd da66 28be 24a7 93be
00000210: 7da4 9abe ef25 0ebe 7564 f13e a69d 4ebe
00000220: 32be 443d decb 033e 5a7b 9abd b67d 0dbe
00000230: c880 dcbd 270f 673e e605 2fbe 31fa a23e
00000240: 91d7 88bc 7c64 193e 9d12 0b3e 8ce5 903e
00000250: b9aa 78be 34ba c33d 1416 3a3c dcd1 353d
00000260: a709 d03d 8aaf ae3e 787b 763e 9212 123e
00000270: d913 963e 790c 743e 08b1 4fbd dc8d 63be
00000280: 1108 823e 05ba 023e a79a 78be 96bf b2be
00000290: 9e47 24be 9ca5 233d c03c c8bc 8a36 cd3e
000002a0: 599c b7be ffa2 e43d 9215 aa3e ed65 e5bd
000002b0: ab3c 44bd f1e0 7fbd dc4a 81be 0fcf 98be
000002c0: f785 603d 2988 053c 75cd 97be 7470 65bd
000002d0: 353e bc3e 7aa3 8dbe 6e3a 8d3d c353 1d3e
000002e0: 4139 113e 3277 2a3d e6ba 673c ab94 9fbe
000002f0: fad2 353e dfdd 86be 4147 573e afbd af3e
00000300: 1588 353e 32e8 5e3c 6dfe c0bd 3a87 b6bc
00000310: a3ea 86be b48f 7cbc 9f3f bb3e bcdf a1be
00000320: 81e9 4e3e ee96 b13d 8a48 e0bd ee30 8dbe
00000330: 5ae4 91bc f41a da3d 2153 bfbe edfe acbe
00000340: f8d4 2d3c 56df 59be 726c d6bd f9f6 68bd
00000350: e5e6 e1bd 7535 03bf e889 92be f420 923e
00000360: 5ccd 633e 0251 463e 69d3 f93d ac7c 3f3d
00000370: fe68 983d b8b8 2a3e de8e 3c3e 6413 223d
00000380: 6d5d 4e3d 7806 1d3e 4e88 c3be 8bdc 283e
00000390: 0c05 e1be b0b8 143e cb29 243e f5d0 69be
000003a0: a34b 3dbd 526c f4be 5f1e b6bd daca 24bb
000003b0: 7a79 9e3d e0a4 323d f566 76be 6127 1e3d
000003c0: 6557 933e 2a14 88bd 124b ab3e 2498 d2ba
000003d0: c64f 693e b4d3 9abe 1527 a53c 6eeb 9b3d
000003e0: 8fd0 05be 2731 11bd 4a89 13be 22dc 3abe
000003f0: a18a 4abe 8fd9 4e3e 3910 503e eb54 a23e
-0.3362298 0.39178577 0.21091521 0.13570383 0.29497573 -0.07724707 -0.2185351 0.17502141
-0.39667717 0.20710611 0.17664456 0.22806525 0.08331061 -0.25600722 0.14560883 0.24756174
-0.19113587 -0.25786436 -0.20263642 -0.08093888 0.2242887 0.18521434 0.27306205 -0.29870448
-0.3270026 0.020402031 -0.38341868 -0.0622477 -0.009171772 0.3784972 0.14748846 -0.121120796
0.3786522 -0.037283357 -0.088290796 0.14303268 -0.025014695 -0.10105942 -0.20087396 0.22736244
0.34093896 -0.08967282 0.27011314 -0.38925466 0.26899835 -0.30296394 -0.37758684 -0.07858729
0.09589388 -0.23105736 0.0059847333 -0.26937452 0.020169126 0.06514333 -0.30001366 -0.28470397
-0.21132527 0.1945925 -0.17252266 0.25050306 0.14307728 -0.39403325 0.039284077 -0.06792242
-0.26294932 0.3116914 -0.020818574 0.33427486 -0.06036724 -0.3203164 -0.17046045 0.08452771
-0.46576422 -0.060828373 0.0740727 0.020490458 -0.015252951 0.26713938 -0.18625176 0.029170573
0.089204244 -0.6916143 0.31988567 0.33809933 -0.1204226 -0.013969363 0.17845121 -0.29884604
-0.22284651 -0.14416835 -0.2861211 -0.2907604 -0.29410577 -0.06677905 -0.22481419 -0.20814817
0.1818651 -0.38471633 -0.5932149 0.23115414 -0.27617034 -0.3199591 -0.3125117 0.06957554
-0.23023587 0.3936875 0.0038648315 -0.0015841392 -0.07072683 -0.31990325 -0.25154832 0.116862684
-0.294088 0.20247129 -0.3517705 -0.23262388 -0.5882019 -0.010315617 0.014040312 -0.019243367
-0.16188915 -0.033176906 -0.22645041 0.12489585 -0.31513268 0.23891887 0.085001975 -0.17597663
-0.27018884 -0.06994643 -0.16445485 -0.28838456 -0.3020362 -0.13881658 0.47146955 -0.20177326
0.048032947 0.12870738 -0.07543059 -0.13817486 -0.107667506 0.22564374 -0.17092094 0.31831506
-0.016704353 0.14979738 0.13581319 0.2830013 -0.24283876 0.09557 0.011357803 0.04438959
0.10158091 0.341183 0.24070537 0.14264897 0.29312018 0.23832883 -0.05070594 -0.22222084
0.2539678 0.12766273 -0.24277745 -0.34911793 -0.16042945 0.03995286 -0.02444303 0.40080673
-0.3586147 0.111639015 0.33219582 -0.112010814 -0.04790942 -0.06247038 -0.25252426 -0.29845473
0.05481526 0.008150139 -0.2964894 -0.056015447 0.3676621 -0.27663785 0.0689591 0.15363984
0.14181997 0.04161758 0.014143681 -0.31168112 0.17756262 -0.2634115 0.21023275 0.34324405
0.17727692 0.013605164 -0.09423528 -0.022281278 -0.2635089 -0.015415121 0.36571977 -0.31616008
0.20206262 0.08671366 -0.10951336 -0.27576393 -0.017809082 0.10649672 -0.3736811 -0.33788243
0.010609858 -0.21276602 -0.10469903 -0.056876156 -0.11030368 -0.51253444 -0.2862084 0.28540766
0.22246307 0.1936684 0.121985264 0.046749756 0.07441901 0.16672027 0.18413875 0.039569274
0.050382067 0.15334499 -0.3818993 0.1649038 -0.43949163 0.14523578 0.16031568 -0.22833617
-0.04621471 -0.47738892 -0.088925116 -0.0025145323 0.077380136 0.04361427 -0.24062712 0.038611773
0.28777614 -0.06644471 0.33455712 -0.001606707 0.22784337 -0.30239642 0.020160237 0.07613264
-0.1306784 -0.035447266 -0.1440784 -0.18248037 -0.19779445 0.2020018 0.20318688 0.31705412

linear2.bias f4 [3]
00000000: c703 4b3e ec05 04be 621b e0bd
0.1982566 -0.12892884 -0.10942723
